…
        Conv2d(in_channels = 1, out_channels = 16, kernel_size = 3),
        ReLU(),
        MaxPool2d(2),
        Conv2d(16,32,3),
        ReLU(),
        MaxPool2d(2),
        Flatten(),
        Linear(in_features = 1152, out_features=16),
        ReLU(),
        Linear(16, 5),
        Softmax(dim = 1)
)
model.to(dev)
summary(model,input_size = (1,32,32), device = dev.type)&lt;/code&gt;&lt;/pre&gt;
&lt;pre&gt;&lt;code&gt;----------------------------------------------------------------
        Layer (type)               Output Shape         Param #
================================================================
            Conv2d-1           [-1, 16, 30, 30]             160
              ReLU-2           [-1, 16, 30, 30]               0
         MaxPool2d-3           [-1, 16, 15, 15]               0
            Conv2d-4           [-1, 32, 13, 13]           4,640
              ReLU-5           [-1, 32, 13, 13]               0
         MaxPool2d-6             [-1, 32, 6, 6]               0
           Flatten-7                 [-1, 1152]               0
            Linear-8                   [-1, 16]          18,448
              ReLU-9                   [-1, 16]               0
           Linear-10                    [-1, 5]              85
          Softmax-11                    [-1, 5]               0
================================================================
Total params: 23,333
Trainable params: 23,333
Non-trainable params: 0
----------------------------------------------------------------
Input size (MB): 0.00
Forward/backward pass size (MB): 0.35
Params size (MB): 0.09
Estimated Total Size (MB): 0.44
----------------------------------------------------------------&lt;/code&gt;&lt;/pre&gt;
…
