…
    layers.Conv2D(16, 3, activation = &amp;quot;relu&amp;quot;, input_shape = (32,32,1)),
    layers.MaxPool2D(2),
    layers.Conv2D(32, 3, activation = &amp;quot;relu&amp;quot;),
    layers.MaxPool2D(2),
    layers.Flatten(),
    layers.Dense(16, activation = &amp;quot;relu&amp;quot;),
    layers.Dense(5, activation = &amp;quot;softmax&amp;quot;)
])
model.summary()&lt;/code&gt;&lt;/pre&gt;
&lt;pre&gt;&lt;code&gt;Model: &amp;quot;sequential&amp;quot;
_________________________________________________________________
Layer (type)                 Output Shape              Param #   
=================================================================
conv2d (Conv2D)              (None, 30, 30, 16)        160       
_________________________________________________________________
max_pooling2d (MaxPooling2D) (None, 15, 15, 16)        0         
_________________________________________________________________
conv2d_1 (Conv2D)            (None, 13, 13, 32)        4640      
_________________________________________________________________
max_pooling2d_1 (MaxPooling2 (None, 6, 6, 32)          0         
_________________________________________________________________
flatten (Flatten)            (None, 1152)              0         
_________________________________________________________________
dense (Dense)                (None, 16)                18448     
_________________________________________________________________
dense_1 (Dense)              (None, 5)                 85        
=================================================================
Total params: 23,333
Trainable params: 23,333
Non-trainable params: 0
_________________________________________________________________&lt;/code&gt;&lt;/pre&gt;
&lt;p&gt;Compile the model.&lt;/p&gt;
&lt;pre class=&#34;python&#34;&gt;&lt;code&gt;model.compile(loss = &amp;quot;sparse_categorical_crossentropy&amp;quot;, optimizer = &amp;quot;adam&amp;quot;, metrics = [&amp;quot;accuracy&amp;quot;])&lt;/code&gt;&lt;/pre&gt;
…
        Conv2d(in_channels = 1, out_channels = 16, kernel_size = 3),
        ReLU(),
        MaxPool2d(2),
        Conv2d(16,32,3),
        ReLU(),
        MaxPool2d(2),
        Flatten(),
        Linear(in_features = 1152, out_features=16),
        ReLU(),
        Linear(16, 5),
        Softmax(dim = 1)
)
model.to(dev)
summary(model,input_size = (1,32,32), device = dev.type)&lt;/code&gt;&lt;/pre&gt;
&lt;pre&gt;&lt;code&gt;----------------------------------------------------------------
        Layer (type)               Output Shape         Param #
================================================================
            Conv2d-1           [-1, 16, 30, 30]             160
              ReLU-2           [-1, 16, 30, 30]               0
         MaxPool2d-3           [-1, 16, 15, 15]               0
            Conv2d-4           [-1, 32, 13, 13]           4,640
              ReLU-5           [-1, 32, 13, 13]               0
         MaxPool2d-6             [-1, 32, 6, 6]               0
           Flatten-7                 [-1, 1152]               0
            Linear-8                   [-1, 16]          18,448
              ReLU-9                   [-1, 16]               0
           Linear-10                    [-1, 5]              85
          Softmax-11                    [-1, 5]               0
================================================================
Total params: 23,333
Trainable params: 23,333
Non-trainable params: 0
----------------------------------------------------------------
Input size (MB): 0.00
Forward/backward pass size (MB): 0.35
Params size (MB): 0.09
Estimated Total Size (MB): 0.44
----------------------------------------------------------------&lt;/code&gt;&lt;/pre&gt;
…
    layers.Conv2D(16, 3, activation = &amp;quot;relu&amp;quot;, input_shape = (31,33,1)),
    layers.MaxPool2D(2),
    layers.Conv2D(32, 3, activation = &amp;quot;relu&amp;quot;),
    layers.MaxPool2D(2),
    layers.Flatten(),
    layers.Dense(16, activation = &amp;quot;relu&amp;quot;),
    layers.Dense(5, activation = &amp;quot;softmax&amp;quot;)
])
model.summary()&lt;/code&gt;&lt;/pre&gt;
&lt;pre&gt;&lt;code&gt;Model: &amp;quot;sequential&amp;quot;
_________________________________________________________________
Layer (type)                 Output Shape              Param #   
=================================================================
conv2d (Conv2D)              (None, 29, 31, 16)        160       
_________________________________________________________________
max_pooling2d (MaxPooling2D) (None, 14, 15, 16)        0         
_________________________________________________________________
conv2d_1 (Conv2D)            (None, 12, 13, 32)        4640      
_________________________________________________________________
max_pooling2d_1 (MaxPooling2 (None, 6, 6, 32)          0         
_________________________________________________________________
flatten (Flatten)            (None, 1152)              0         
_________________________________________________________________
dense (Dense)                (None, 16)                18448     
_________________________________________________________________
dense_1 (Dense)              (None, 5)                 85        
=================================================================
Total params: 23,333
Trainable params: 23,333
Non-trainable params: 0
_________________________________________________________________&lt;/code&gt;&lt;/pre&gt;
&lt;p&gt;Compile the model.&lt;/p&gt;
&lt;pre class=&#34;python&#34;&gt;&lt;code&gt;model.compile(loss = &amp;quot;sparse_categorical_crossentropy&amp;quot;, optimizer = &amp;quot;adam&amp;quot;, metrics = [&amp;quot;accuracy&amp;quot;])&lt;/code&gt;&lt;/pre&gt;
…
