…
as.Sequential([\rlayers.Conv2D(16, 3, activation = \u0026quot;relu\u0026quot;, input_shape = (31,33,1)),\rlayers.MaxPool2D(2),\rlayers.Conv2D(32, 3, activation = \u0026quot;relu\u0026quot;),\rlayers.MaxPool2D(2),\rlayers.Flatten(),\rlayers.Dense(16, activation = \u0026quot;relu\u0026quot;),\rlayers.Dense(5, activation = \u0026quot;softmax\u0026quot;)\r])\rmodel.summary()\rModel: \u0026quot;sequential\u0026quot;\r_________________________________________________________________\rLayer (type) Output Shape Param # =================================================================\rconv2d (Conv2D) (None, 29, 31, 16) 160 _________________________________________________________________\rmax_pooling2d (MaxPooling2D) (None, 14, 15, 16) 0 _________________________________________________________________\rconv2d_1 (Conv2D) (None, 12, 13, 32) 4640 _________________________________________________________________\rmax_pooling2d_1 (MaxPooling2 (None, 6, 6, 32) 0 _________________________________________________________________\rflatten (Flatten) (None, 1152) 0 _________________________________________________________________\rdense (Dense) (None, 16) 18448 _________________________________________________________________\rdense_1 (Dense) (None, 5) 85 =================================================================\rTotal params: 23,333\rTrainable params: 23,333\rNon-trainable params: 0\r_________________________________________________________________\rCompile the model.\nmodel.compile(loss = \u0026quot;sparse_categorical_crossentropy\u0026quot;, optimizer = \u0026quot;adam\u0026quot;, metrics = [\u0026quot;accuracy\u0026quot;])\rBefore we f
…
as.Sequential([\rlayers.Conv2D(16, 3, activation = \u0026quot;relu\u0026quot;, input_shape = (32,32,1)),\rlayers.MaxPool2D(2),\rlayers.Conv2D(32, 3, activation = \u0026quot;relu\u0026quot;),\rlayers.MaxPool2D(2),\rlayers.Flatten(),\rlayers.Dense(16, activation = \u0026quot;relu\u0026quot;),\rlayers.Dense(5, activation = \u0026quot;softmax\u0026quot;)\r])\rmodel.summary()\rModel: \u0026quot;sequential\u0026quot;\r_________________________________________________________________\rLayer (type) Output Shape Param # =================================================================\rconv2d (Conv2D) (None, 30, 30, 16) 160 _________________________________________________________________\rmax_pooling2d (MaxPooling2D) (None, 15, 15, 16) 0 _________________________________________________________________\rconv2d_1 (Conv2D) (None, 13, 13, 32) 4640 _________________________________________________________________\rmax_pooling2d_1 (MaxPooling2 (None, 6, 6, 32) 0 _________________________________________________________________\rflatten (Flatten) (None, 1152) 0 _________________________________________________________________\rdense (Dense) (None, 16) 18448 _________________________________________________________________\rdense_1 (Dense) (None, 5) 85 =================================================================\rTotal params: 23,333\rTrainable params: 23,333\rNon-trainable params: 0\r_________________________________________________________________\rCompile the model.\nmodel.compile(loss = \u0026quot;sparse_categorical_crossentropy\u0026quot;, optimizer = \u0026quot;adam\u0026quot;, metrics = [\u0026quot;accuracy\u0026quot;])\rBefore we f
…
