…
&lt;/span&gt;&lt;/span&gt;&lt;span class=&#34;line&#34;&gt;&lt;span class=&#34;cl&#34;&gt;&lt;span class=&#34;n&#34;&gt;model&lt;/span&gt;&lt;span class=&#34;o&#34;&gt;.&lt;/span&gt;&lt;span class=&#34;n&#34;&gt;summary&lt;/span&gt;&lt;span class=&#34;p&#34;&gt;()&lt;/span&gt;
&lt;/span&gt;&lt;/span&gt;&lt;/code&gt;&lt;/pre&gt;&lt;/div&gt;&lt;pre&gt;&lt;code&gt;Model: &amp;quot;sequential&amp;quot;
_________________________________________________________________
Layer (type)                 Output Shape              Param #   
=================================================================
conv2d (Conv2D)              (None, 30, 30, 16)        160       
_________________________________________________________________
max_pooling2d (MaxPooling2D) (None, 15, 15, 16)        0         
_________________________________________________________________
conv2d_1 (Conv2D)            (None, 13, 13, 32)        4640      
_________________________________________________________________
max_pooling2d_1 (MaxPooling2 (None, 6, 6, 32)          0         
_________________________________________________________________
flatten (Flatten)            (None, 1152)              0         
_________________________________________________________________
dense (Dense)                (None, 16)                18448     
_________________________________________________________________
dense_1 (Dense)              (None, 5)                 85        
=================================================================
Total params: 23,333
Trainable params: 23,333
Non-trainable params: 0
_________________________________________________________________
&lt;/code&gt;&lt;/pre&gt;
&lt;p&gt;Compile the model.&lt;/p&gt;
&lt;div class=&#34;highlight&#34;&gt;&lt;pre tabindex=&#34;0&#34; class=&#34;chroma&#34;&gt;&lt;code class=&#34;language-pyth
…
&lt;/span&gt;&lt;/span&gt;&lt;span class=&#34;line&#34;&gt;&lt;span class=&#34;cl&#34;&gt;&lt;span class=&#34;n&#34;&gt;model&lt;/span&gt;&lt;span class=&#34;o&#34;&gt;.&lt;/span&gt;&lt;span class=&#34;n&#34;&gt;summary&lt;/span&gt;&lt;span class=&#34;p&#34;&gt;()&lt;/span&gt;
&lt;/span&gt;&lt;/span&gt;&lt;/code&gt;&lt;/pre&gt;&lt;/div&gt;&lt;pre&gt;&lt;code&gt;Model: &amp;quot;sequential&amp;quot;
_________________________________________________________________
Layer (type)                 Output Shape              Param #   
=================================================================
conv2d (Conv2D)              (None, 29, 31, 16)        160       
_________________________________________________________________
max_pooling2d (MaxPooling2D) (None, 14, 15, 16)        0         
_________________________________________________________________
conv2d_1 (Conv2D)            (None, 12, 13, 32)        4640      
_________________________________________________________________
max_pooling2d_1 (MaxPooling2 (None, 6, 6, 32)          0         
_________________________________________________________________
flatten (Flatten)            (None, 1152)              0         
_________________________________________________________________
dense (Dense)                (None, 16)                18448     
_________________________________________________________________
dense_1 (Dense)              (None, 5)                 85        
=================================================================
Total params: 23,333
Trainable params: 23,333
Non-trainable params: 0
_________________________________________________________________
&lt;/code&gt;&lt;/pre&gt;
&lt;p&gt;Compile the model.&lt;/p&gt;
&lt;div class=&#34;highlight&#34;&gt;&lt;pre tabindex=&#34;0&#34; class=&#34;chroma&#34;&gt;&lt;code class=&#34;language-pyth
…
