…
&lt;/span&gt;&lt;/span&gt;&lt;span class=&#34;line&#34;&gt;&lt;span class=&#34;cl&#34;&gt;&lt;span class=&#34;n&#34;&gt;model&lt;/span&gt;&lt;span class=&#34;o&#34;&gt;.&lt;/span&gt;&lt;span class=&#34;n&#34;&gt;summary&lt;/span&gt;&lt;span class=&#34;p&#34;&gt;()&lt;/span&gt;
&lt;/span&gt;&lt;/span&gt;&lt;/code&gt;&lt;/pre&gt;&lt;/div&gt;&lt;pre&gt;&lt;code&gt;Model: &amp;quot;sequential&amp;quot;
_________________________________________________________________
Layer (type)                 Output Shape              Param #   
=================================================================
conv2d (Conv2D)              (None, 30, 30, 16)        160       
_________________________________________________________________
max_pooling2d (MaxPooling2D) (None, 15, 15, 16)        0         
_________________________________________________________________
conv2d_1 (Conv2D)            (None, 13, 13, 32)        4640      
_________________________________________________________________
max_pooling2d_1 (MaxPooling2 (None, 6, 6, 32)          0         
_________________________________________________________________
flatten (Flatten)            (None, 1152)              0         
_________________________________________________________________
dense (Dense)                (None, 16)                18448     
_________________________________________________________________
dense_1 (Dense)              (None, 5)                 85        
=================================================================
Total params: 23,333
Trainable params: 23,333
Non-trainable params: 0
_________________________________________________________________
&lt;/code&gt;&lt;/pre&gt;
&lt;p&gt;Compile the model.&lt;/p&gt;
&lt;div class=&#34;highlight&#34;&gt;&lt;pre tabindex=&#34;0&#34; class=&#34;chroma&#34;&gt;&lt;code class=&#34;language-pyth
…
t;/span&gt; &lt;span class=&#34;n&#34;&gt;device&lt;/span&gt; &lt;span class=&#34;o&#34;&gt;=&lt;/span&gt; &lt;span class=&#34;n&#34;&gt;dev&lt;/span&gt;&lt;span class=&#34;o&#34;&gt;.&lt;/span&gt;&lt;span class=&#34;n&#34;&gt;type&lt;/span&gt;&lt;span class=&#34;p&#34;&gt;)&lt;/span&gt;
&lt;/span&gt;&lt;/span&gt;&lt;/code&gt;&lt;/pre&gt;&lt;/div&gt;&lt;pre&gt;&lt;code&gt;----------------------------------------------------------------
        Layer (type)               Output Shape         Param #
================================================================
            Conv2d-1           [-1, 16, 30, 30]             160
              ReLU-2           [-1, 16, 30, 30]               0
         MaxPool2d-3           [-1, 16, 15, 15]               0
            Conv2d-4           [-1, 32, 13, 13]           4,640
              ReLU-5           [-1, 32, 13, 13]               0
         MaxPool2d-6             [-1, 32, 6, 6]               0
           Flatten-7                 [-1, 1152]               0
            Linear-8                   [-1, 16]          18,448
              ReLU-9                   [-1, 16]               0
           Linear-10                    [-1, 5]              85
          Softmax-11                    [-1, 5]               0
================================================================
Total params: 23,333
Trainable params: 23,333
Non-trainable params: 0
----------------------------------------------------------------
Input size (MB): 0.00
Forward/backward pass size (MB): 0.35
Params size (MB): 0.09
Estimated Total Size (MB): 0.44
----------------------------------------------------------------
&lt;/code&gt;&lt;/pre&gt;
…
